Different Model for Testing Feature Extraction and Metrics/saved_model/stock_price_model.pth (torch, 209860 bytes, 10 tensors)

lstm.weight_ih_l0 f4 [256, 4]
000000 3b 15 0d 3e c4 e1 30 3c 3d 84 51 3d 8f 56 7c bd
       0.1377763 0.010796014 0.051151503 -0.061605986
000010 60 44 02 bd 05 1d cd 3c 7f fe 21 bc 99 6b 8f bc
       -0.03180349 0.025038252 -0.009887337 -0.017507361
000020 b9 34 17 bd 11 7f 69 bd ac ce 64 3d 06 5f d1 3d
       -0.036915515 -0.057005946 0.05586116 0.102232024
000030 d9 52 9b 3d d2 0a 01 3e 2d d5 e0 bd e0 38 ba bd
       0.07584161 0.12601784 -0.1097816 -0.09092879
000040 76 09 a2 3d dc fe 48 3d 7e 65 7e bc 0a ba 33 bd
       0.07911961 0.049071178 -0.015527127 -0.043878593
000050 f1 c0 f8 3d 45 00 ed 3d 8f 1b 5c bc e5 3a 6e 3c
       0.12146176 0.11572317 -0.013434305 0.014540409
000060 37 50 e8 3d df de 7b 3d b0 1c 3a bc 1c 23 dd 38
       0.11343425 0.061491843 -0.011359379 0.00010544641
000070 12 93 06 bc 92 ca 40 bc 6d 0b 68 3c d7 96 b0 bd
       -0.008213775 -0.0117670465 0.01416288 -0.086225204
000080 81 d8 9e 3d ca 79 06 3d a0 0d a0 bb d1 75 cf bc
       0.077561386 0.03283099 -0.0048844367 -0.025324734
000090 6e 7c af 3d 58 cd ce 3d 70 59 e6 3c b3 8f 6a 3d
       0.08568655 0.1009776 0.028118819 0.05726595
0000a0 72 32 2b 3e 38 59 f2 bc eb 23 06 3e 1c 8a 81 3d
       0.16718462 -0.029583558 0.13099639 0.063251704
0000b0 49 45 ca bb d8 ff e1 bd 00 dc dd bd 13 2d 6f 3d
       -0.00617281 -0.110351264 -0.10832977 0.058392595
0000c0 2e f1 9d 3d 23 ea 54 3c df 1d 92 3d 5c 6e 68 3d
       0.07712017 0.012995276 0.07134604 0.056745872
0000d0 96 36 21 3e ea 34 51 3e 44 cb 08 3e cc ec 20 3d
       0.15743479 0.20430341 0.1335879 0.039288327
0000e0 2a 99 fe 3c 18 1b ed 3d 57 39 38 b9 40 46 47 bd
       0.031078894 0.11577433 -0.00017568968 -0.04865098
0000f0 79 eb 48 bc d6 b8 bd 3d f1 79 b4 bd cf 8b d7 3d
       -0.012263172 0.0926377 -0.08812321 0.10524713
000100 2d 96 12 3d 2c 9d 5f 3e dc 37 1e bc 12 24 b2 bb
       0.03578775 0.218373 -0.009656873 -0.005436429
000110 c9 c9 02 3e 7e 35 c6 bd a0 74 c1 bb 1b 7c a4 bd
       0.12772287 -0.096781716 -0.0059037954 -0.08031484
000120 03 04 fe 3d c8 fa 08 3e 83 df 06 bd c2 27 d3 3c
       0.12403109 0.13376915 -0.032928 0.025775794
000130 cb 39 45 3e d5 bd 35 3d 1b bb cf 3d 33 8d a0 bd
       0.19260328 0.04437049 0.101431094 -0.078394316
000140 46 9e 09 3e 39 70 9a 3d c0 60 34 bd 90 6d 0f bd
       0.13439283 0.07540936 -0.04403758 -0.035016596
000150 35 d1 1d 3e 8f ee c7 bc b0 a0 45 3d 1a d7 cc 3c
       0.15411837 -0.024405746 0.048248947 0.025004912
000160 ff 40 25 bc ba 9f 19 bd d4 f7 da 3c 90 b9 02 bd
       -0.010086297 -0.037505843 0.026729502 -0.031915247
000170 65 d6 ac bd 8e 3f 11 3e 2a d5 59 be 70 aa 19 be
       -0.0843933 0.141844 -0.21272722 -0.15006423
000180 af c2 18 3d c6 b0 a1 3d 46 f9 10 bd d6 db bb 3b
       0.03729504 0.07895045 -0.035393976 0.0057329936
000190 1d 3f 2e be 1f ff 2a 3e 65 c5 c6 3d 1f f8 12 be
       -0.17016263 0.16698883 0.09705619 -0.14352463
0001a0 e7 9b 89 bd 95 d0 2a 3e 50 32 7a be 8d e3 bd be
       -0.06719189 0.1668113 -0.24433255 -0.3708767
0001b0 6d 5d 23 3e 0b 5c f3 3d b6 69 25 bd de 41 9b bd
       0.15953608 0.1188279 -0.040384017 -0.075809225
0001c0 21 3c 3e 3e 8e 6d 3f bd 95 f2 46 3b d8 0d bf 3c
       0.18577625 -0.04673534 0.0030356993 0.02332203
0001d0 0b 7b 16 3d 39 55 16 3d 6b 1e 75 bd 39 62 38 bd
       0.036738437 0.03670237 -0.059843462 -0.045015547
0001e0 28 b2 47 bd 11 74 65 bc 74 59 d3 bd 41 f1 87 bc
       -0.048753887 -0.014004723 -0.10319796 -0.016594531
0001f0 74 a9 44 3e 7b 46 5a 3d 3f e1 f1 bc e3 5b fa bd
       0.19205266 0.05328987 -0.029526351 -0.12224557
000200 8d 8c 9a 3d fc c1 98 bd 4b 5d 15 3e 06 e4 59 bd
       0.07546339 -0.074588746 0.1458637 -0.053195976
000210 c9 95 0b 3e f6 0f 1f bc 84 db 17 3e 7c 6d cb bc
       0.13631357 -0.009708395 0.14829832 -0.02483248
000220 cb 29 1c 3e e3 4f 75 3c 8f ba bd 3b f2 d6 04 bc
       0.15250318 0.01497266 0.005790062 -0.008107888
000230 20 23 51 3e d3 47 11 3d 05 ce 14 3d f8 d7 96 3d
       0.20423555 0.035468888 0.036329288 0.073654115
000240 2c 2f 54 3d 6c 3d 39 bd 7b fe 9c 3d 73 06 0d bd
       0.0518028 -0.045224592 0.07665726 -0.03442998
000250 f3 34 f3 3c 2f 71 a6 bd cc 4a 99 3d a0 e0 ca 3c
       0.029688334 -0.08127057 0.074849695 0.024765313
000260 21 8f cd 3d d4 40 d9 3d 18 b1 b4 3d 3e a5 c5 bd
       0.10037065 0.10608068 0.088228405 -0.09650658
000270 71 d3 b5 3e d2 89 fe 3d 01 e2 82 3d fb 37 25 3e
       0.3551288 0.12428631 0.06390763 0.16134636
000280 45 49 59 3e 8f b6 44 3e 1a 89 7a 3d 6f 51 12 3d
       0.21219356 0.19210266 0.061165906 0.035722192
000290 2e eb 54 3d c1 c0 0c 3d 22 c8 85 3d f7 fc e5 3d
       0.051982097 0.034363512 0.06532313 0.1122989
0002a0 99 96 ae 3d ce 23 f6 3d 29 74 af 3d b0 ec 3d bd
       0.08524818 0.12018548 0.08567078 -0.0463683
0002b0 75 23 b0 3d 70 a4 a7 bd 42 38 77 bd 89 ac f2 bd
       0.08600513 -0.08185661 -0.060356386 -0.11849315
0002c0 4b fb 05 3d f6 fe 0d 3e ee 78 20 bd 4a 6c 0f 3e
       0.032710355 0.13866791 -0.039177828 0.14006153
0002d0 f1 c1 b1 bc 33 7a 2c bc 62 67 fd 3d 3b c4 04 3e
       -0.021698924 -0.010527181 0.12373234 0.12965481
0002e0 8c ba 5b 3e 02 0b a9 3e 02 15 81 3e c0 28 46 3e
       0.2145788 0.3301621 0.2521134 0.19351482
0002f0 32 ce cd 3d b9 28 58 3d 63 2f 96 bd 76 7a 2e bd
       0.10049094 0.05277321 -0.07333257 -0.042597257
000300 d7 d3 ca 3d 28 1f 81 bd 48 de 7c bd 59 6c 08 bc
       0.099036865 -0.06304771 -0.06173542 -0.008326613
000310 dd bf 21 3e f2 d8 b7 3d cf b6 da bd 4c eb e9 bc
       0.15795846 0.08976926 -0.10679399 -0.028554581
000320 26 c8 33 3e 7c 71 fa bc 82 c0 c2 bb 55 f4 a9 bd
       0.1755682 -0.030571692 -0.005943359 -0.08298556
000330 62 f8 e8 3d 39 68 b0 3c 4b b0 82 bd db 03 ba 3c
       0.113755 0.021534072 -0.063812815 0.022706917
000340 25 b2 5f 3d ec dd 1b 3e 29 66 8f bd 19 99 5c bd
       0.05461325 0.15221375 -0.070019074 -0.053856943
000350 77 11 0e 3e 49 c4 9e bd 66 89 fa 3c a2 83 cf 3d
       0.1387385 -0.07752282 0.030583095 0.10132529
000360 30 94 cf bc 15 8d 82 3d 8a 7b 58 bb 54 80 88 bd
       -0.025339216 0.063745655 -0.003303262 -0.06665102
000370 30 54 08 bd 72 12 db bc 1e 20 d2 3c b5 c2 e8 bc
       -0.033283412 -0.026742194 0.02565008 -0.028413156
000380 11 ea 5d 3d 5b d0 36 bd f2 38 57 bd b7 e1 88 bc
       0.0541783 -0.044632297 -0.05254454 -0.016709192
000390 7e 4d ee 3c 4c b2 96 3d 37 48 f8 bd d4 6a 95 3c
       0.029089686 0.07358226 -0.12123149 0.018239416
0003a0 ab 32 ca bd af e0 7e 3c 8d 2e a3 3d 39 32 da 3c
       -0.098729454 0.015556498 0.07967863 0.026635276
0003b0 87 b1 5e bb 99 79 62 3e 1e 66 14 3c e1 52 be 3d
       -0.0033980326 0.22116698 0.00905755 0.09293152
0003c0 32 22 f3 bc 81 17 a8 bc e5 7e 22 bd 25 45 fd bd
       -0.029679392 -0.02051902 -0.039671797 -0.12366704
0003d0 51 53 f1 bd ac 1b 57 3e ae 9c b1 bd 41 6d 6b 3d
       -0.117834695 0.2100665 -0.086724624 0.05747724
0003e0 1b ed 0c 3e 45 07 b6 3d 74 7b 5d 3d e7 06 87 3d
       0.13762324 0.08888105 0.054072812 0.065931134
0003f0 0e 58 ee 3d 1f a6 4f 3d 0f 5e 18 3e 6f bd 61 3d
       0.11637889 0.050695535 0.1487963 0.0551123

lstm.weight_hh_l0 f4 [256, 64]
000000 5c e6 c5 3c a3 45 fc bd 43 17 36 3d 67 5d 8b 3d
       0.024157695 -0.1231797 0.044455778 0.068049245
000010 2d 09 03 3e cf 76 b8 3c 8b af bc bd 22 12 f2 3d
       0.12796469 0.02251759 -0.0921317 0.11819865
000020 ea d3 03 bd 37 cb 81 3d 17 d4 1a 3e 43 98 d2 3d
       -0.03218452 0.06337588 0.15119968 0.10282948
000030 9b f7 87 3d b4 8c 30 3d a0 7d 09 3e 0e d5 02 3e
       0.06639024 0.043102935 0.13426828 0.12776586
000040 f1 9c cd bd 50 99 4e bd 92 80 26 3d ab fd 63 3d
       -0.100397 -0.05043918 0.040649958 0.05566184
000050 46 32 a7 3c 65 5c d7 3d 65 7f a5 3d f0 fd 9c 3d
       0.020409714 0.1051567 0.08080939 0.07665622
000060 9a 5a e7 3d c6 76 0d bd 0e 7f 60 bd 66 da b8 bc
       0.11296578 -0.0345371 -0.05480867 -0.022565078
000070 52 e2 cd 3d 56 a6 eb bd 63 a8 a3 bd 30 12 5d bd
       0.10052933 -0.115063354 -0.079911016 -0.053972423
000080 44 29 80 3d f8 e9 c0 bd 4e 6b e4 bd dc a8 fa 3d
       0.06257871 -0.09419626 -0.11153279 0.122392386
000090 4d 49 60 3d 5b f5 47 3d 7b 0d c1 bd 6f 24 e5 3d
       0.054757405 0.048817974 -0.09426399 0.1118859
0000a0 c7 aa 1e 3d b3 00 2b 3d 0d 62 56 bd b2 84 c2 bd
       0.038737085 0.041748714 -0.052339602 -0.09497966
0000b0 c6 a3 c9 3d 62 27 ea 3b b8 55 26 be da f5 ab 3d
       0.098456904 0.007145808 -0.16243637 0.08396502
0000c0 1c 2e 00 3e e8 73 9e 3d cf af 8a bd 84 cd 85 bd
       0.1251759 0.07736951 -0.06771814 -0.065333396
0000d0 73 2c 09 be dd e1 b3 3d db 24 0b 3e 0a 38 db bb
       -0.13395862 0.087833144 0.13588278 -0.00669003
0000e0 9c c5 18 bd 7f 72 bc bd 82 3c 05 3d 5f 94 8a 3d
       -0.03729783 -0.09201526 0.032528408 0.06766581
0000f0 12 d9 ae 3c 4d 8c 85 3c 02 bb 53 bc 16 64 e8 3d
       0.021343742 0.016302252 -0.012923004 0.11347215
000100 76 b8 b7 3d 44 c0 b7 3d 8d 24 4f bc da 8d b3 bd
       0.0897073 0.08972219 -0.012642992 -0.087672904
000110 32 31 3f 3d 15 79 b7 3d 00 50 03 be 38 7d e3 3c
       0.046677776 0.089586414 -0.12823486 0.02776967
000120 18 c2 d6 bd 8a ea 9d 3d be ef f0 3c 3f 04 ec bd
       -0.10486239 0.077107504 0.029411193 -0.115242474
000130 13 fb 12 3e 2a 2e b1 3d d7 4d e6 3c d6 37 c5 3d
       0.1435359 0.08651383 0.028113289 0.096297905
000140 fb ad 16 be 60 d6 73 bd be 92 9d bd 17 d0 bd bd
       -0.14714806 -0.059530616 -0.076940045 -0.092682056
000150 0b 68 1e be 05 fc 11 3d f6 ed d4 3d ba a0 80 3d
       -0.15469377 0.035640735 0.1039695 0.06280656
000160 cf 9c 52 3d 37 a6 80 bd 6d ab e2 bc 79 81 04 3d
       0.051419076 -0.06281703 -0.027669633 0.032350037
000170 22 9b a7 3c b5 16 9b 3d da 86 0c be b2 24 ba 3d
       0.020459715 0.075726904 -0.13723317 0.0908903
000180 f3 1f 89 bd 6b 4e 6d bd 35 dc 8e bd 9f ed df 3d
       -0.06695547 -0.057936113 -0.06975595 0.109339945
000190 b1 da ab bd 5f ed e8 bc 2c a5 77 bd 15 43 f1 3d
       -0.083913215 -0.0284335 -0.060460255 0.11780373
0001a0 ce 90 d8 bd 91 e2 b7 3b df f8 e5 bb 8f 46 e1 3d
       -0.10574494 0.0056117256 -0.007018193 0.10999786
0001b0 78 a1 97 3c 0f 62 d5 bd 47 8c db bd 2e b5 85 bb
       0.018509611 -0.10419094 -0.10720115 -0.004080436
0001c0 39 6b 88 3d 94 e9 49 3d b5 f2 11 3e 5e 27 a3 3d
       0.06661076 0.049295023 0.14252742 0.07966493
0001d0 8c f2 f8 bd f3 0c 38 bd a6 45 ff 3d af c8 03 be
       -0.12155637 -0.044934224 0.12464456 -0.12869523
0001e0 ee 87 77 3b 48 f1 e7 bd 3b 0c 99 bd 79 bb 38 3c
       0.003777023 -0.113253176 -0.07473036 0.011275166
0001f0 a9 87 db bb b9 7c 65 3c a2 d6 02 3c 8d 3a 60 3d
       -0.0066995216 0.014006787 0.007985743 0.05474334
000200 2a f3 ac bc cb 46 2a bc 68 25 53 3d b5 9b a5 bc
       -0.021112043 -0.010392855 0.051549345 -0.020215848
000210 78 dd 1c bd bd 89 ea bd ee a8 22 bc 44 f3 0b 3e
       -0.038297147 -0.11452053 -0.009927971 0.13667017
000220 39 0f c3 3c 81 c0 80 3d 90 5b 82 3d 1c cf 45 bd
       0.02381097 0.06286717 0.063651204 -0.048293218
000230 92 d8 41 3c e0 72 da bd 73 6d 11 bd 8c e8 c7 3d
       0.01183142 -0.10666442 -0.03550477 0.09761152
000240 6d 2e e8 bd 4a 2b c4 bd 33 ec 0a bd f4 c8 31 bb
       -0.1133698 -0.09578569 -0.033916663 -0.0027127834
000250 7b ee c8 3c 70 9c c8 bd 51 d4 a3 bd 6e 53 66 3d
       0.024527779 -0.09795463 -0.079994805 0.05623191
000260 a1 cb ab bb 06 7e 1a 3d d6 fe ab bc 85 66 c6 3d
       -0.0052427803 0.03771784 -0.020995539 0.09687523
000270 53 0a 3d bd 40 28 a8 3c 50 fd a3 3b 4a 76 5e 3d
       -0.046152424 0.020527005 0.0050045624 0.054312028
000280 b9 d2 6e 3c a0 d8 73 bd ce e9 a8 3d 36 b5 a9 3d
       0.014576607 -0.05953276 0.0824772 0.08286516
000290 e5 db 7d bc 6c 41 ef 3d e1 fe 98 3d 12 4d b2 bc
       -0.0154943215 0.116824 0.07470489 -0.021765266
0002a0 8b 35 30 3c 49 6e 95 bd 93 e5 ae bb 1d 91 0a bc
       0.010754953 -0.07296426 -0.005337426 -0.008457449
0002b0 e0 06 33 bc e6 d8 db bc 26 73 de 3c dd e5 d0 bd
       -0.010926932 -0.026836824 0.027154516 -0.10200093
0002c0 7c 1a ce bd 5f 90 cd bd f4 14 f2 bd 1f 5f d7 3c
       -0.10063645 -0.10037302 -0.11820403 0.026290474
0002d0 80 9f 86 3d 79 ce a6 3c c0 18 06 3e 0c 1f 64 3d
       0.06573391 0.020362126 0.13095379 0.05569367
0002e0 80 1b b4 3d 09 ab fc 3c b6 a1 a1 3c 32 c6 d8 bd
       0.08794308 0.030843275 0.01973043 -0.10584678
0002f0 bb b1 73 bd f2 a5 07 bd 80 c3 20 bd bf dd d9 3d
       -0.05949567 -0.033117242 -0.039248943 0.10637998
000300 63 fa e7 bd e9 4c 84 bd 97 96 46 3d 3d 13 ff bc
       -0.11327054 -0.06459982 0.048483457 -0.031137103
000310 cd 95 01 3e bc 3c 48 bc f1 6d ab bd ff 6e b7 3d
       0.126548 -0.012221511 -0.08370579 0.08956718
000320 c3 6c f3 bd 55 c3 0f 3d 69 27 a4 bd 61 0c bb bd
       -0.11885979 0.035098393 -0.080153294 -0.091332205
000330 af 4a 40 bd fd fe 07 be 63 96 59 3d f1 c2 67 bd
       -0.046946224 -0.13280864 0.053121936 -0.056582395
000340 99 1f 4c bd 21 b1 3d 3d f8 15 97 3d 84 77 a2 bd
       -0.04983482 0.0463115 0.07377237 -0.07932952
000350 5d bc 8f bd 0c 04 38 bd 75 53 b9 bc 26 16 2a 3d
       -0.07018349 -0.044925734 -0.022622803 0.04152503
000360 8a e2 a5 3c 75 12 9a 3c de 48 1a bd 89 29 9f bc
       0.020249624 0.01880763 -0.037667148 -0.019428985
000370 c8 68 c6 bd 6b 65 00 3d 29 ff b6 bc c7 28 83 3d
       -0.09687954 0.03134672 -0.022338467 0.06404262
000380 11 0a 87 bc d4 4a b6 bd b7 eb 8f bd 3e 99 c4 bc
       -0.016484292 -0.08900991 -0.07027381 -0.023998853
000390 ad 7f 06 be d9 0e e3 3d 29 37 a9 3d 61 0a ee 3d
       -0.13134642 0.11086816 0.08262474 0.11623073
0003a0 34 29 d9 3d fc 6c b8 ba bf 41 84 3d 5d d0 5a bd
       0.10603562 -0.0014070566 0.064578526 -0.053421367
0003b0 22 c3 0c bc 29 39 1c 3d e0 58 0b 3e e8 aa 06 be
       -0.008591445 0.03814045 0.13608122 -0.13151133
0003c0 12 c1 00 be 8c ea 79 3d e7 31 e9 3d ad 68 d1 bd
       -0.1257365 0.061014697 0.11386471 -0.102250434
0003d0 d9 ee 99 bd 0f 03 53 bb 2a 5b 44 3b 09 63 7f 3d
       -0.0751626 -0.0032197868 0.0029961565 0.062350307
0003e0 7d 29 b8 3c 12 a8 a7 bd ba 4f 1a 3e 29 cd 66 bd
       0.02248072 -0.08186354 0.15069476 -0.056348
0003f0 79 cf 82 3c d5 a4 a0 3d de 25 b0 bd 59 ef cc bd
       0.015968071 0.07843939 -0.086009726 -0.100065894

lstm.bias_ih_l0 f4 [256]
000000 92 84 77 bd 71 9a 0d 3e e3 f1 c5 bd 68 ff 92 bd
       -0.060429163 0.13828446 -0.09665277 -0.07177621
000010 0a 34 2d bb 61 02 5e bd 82 ae 9c 3d f7 d7 ad 3d
       -0.0026428723 -0.054201487 0.07650472 0.08488458
000020 d2 b1 c6 bd a7 1a 87 bd cd fd 67 bd 41 62 f0 3d
       -0.09701885 -0.065968804 -0.056638528 0.117374904
000030 51 b3 a8 3c 43 a3 2d 3e 14 e3 fc 3c 1b ad cd bb
       0.020593317 0.1695681 0.030869998 -0.0062767393
000040 79 75 0d 3e 3b 4a d6 bd d2 46 0c ba 1b 59 1e 3d
       0.13814344 -0.10463377 -0.0005351129 0.038659196
000050 d9 e1 16 3e 6a 43 84 bb b2 06 62 bd ae 87 92 bc
       0.14734592 -0.0040363567 -0.055182166 -0.017886963
000060 f4 f9 84 3d 8b 0e 30 3d fb e5 07 3d 71 e0 04 bd
       0.06492987 0.04298262 0.03317831 -0.032440607
000070 76 28 01 3e f6 25 25 3e e2 98 26 3e 61 60 f4 3d
       0.12613091 0.16127762 0.16269258 0.11932445
000080 a8 dd d6 bc 5b a7 03 bd 24 b3 a3 bd 31 4d 6b bd
       -0.02622874 -0.032142024 -0.07993153 -0.057446662
000090 cb 00 92 bd 73 3a b5 3c 83 3d 25 bc 6b eb 7b 3e
       -0.071290575 0.022122597 -0.010085466 0.24601524
0000a0 a4 4d 24 bd 73 06 aa bd 6f 11 0a bc 5e 29 70 3d
       -0.040113106 -0.08302011 -0.008427008 0.0586332
0000b0 b9 9a a4 3d 31 5a e7 3d 51 d0 3b 3e f0 c5 18 bc
       0.080373235 0.112964995 0.18341185 -0.009324536
0000c0 c9 3b 19 bd 90 56 02 3d 03 29 3d 3d b5 e5 34 bd
       -0.03741053 0.031820834 0.04618169 -0.04416438
0000d0 93 07 37 3d 55 83 4c bd 8c 5a 1b bd e0 11 a0 3d
       0.044684958 -0.049929935 -0.03792815 0.078159094
0000e0 34 c3 74 3d 5a 51 a6 3a 00 d9 bf bc 5d 69 81 3d
       0.059756473 0.001268904 -0.023418903 0.063189246
0000f0 4e c7 26 3c 97 36 45 3e 1f 99 c7 bd 79 62 22 3e
       0.010179354 0.19259106 -0.097460024 0.15857877
000100 6d 15 d4 3d e7 3d 21 3d ca 2b a5 bd a9 ed d0 3d
       0.10355649 0.039365675 -0.08064993 0.1020158
000110 64 b8 ef 3d ad 1d 91 bd f7 ba e6 3d 0b 18 55 bc
       0.117050916 -0.07085738 0.112661295 -0.013006221
000120 da 9d 50 3d 9a f0 f0 3b 9a c2 52 bd 05 50 11 3d
       0.05093179 0.0073529007 -0.051455118 0.035476703
000130 d0 93 60 3d 84 6b e1 3d 8f 05 35 3c 66 77 a2 bd
       0.054828465 0.11006835 0.011048689 -0.0793293
000140 1e 12 ef 3d b9 d1 d2 bd 9e 8c 88 3d 37 f9 5c bd
       0.116733775 -0.10293908 0.066674456 -0.053948607
000150 2e 5e 9d 3d 02 36 64 3c f1 e8 ad bd 9b a2 05 3e
       0.07683979 0.013928892 -0.08491696 0.1305031
000160 df 04 d8 3d 3b b6 8a bd 22 a3 11 3e 0a 35 e2 bd
       0.10547804 -0.06773039 0.14222386 -0.11045273
000170 ef 60 32 bd 2c d7 f1 3c 59 ec 09 3d f5 2d 08 3d
       -0.043549474 0.029521547 0.033672664 0.033246953
000180 85 32 3a bd 20 13 cb bc 8b 6b af bb 2e ca 72 3b
       -0.045458335 -0.024789393 -0.0053533963 0.0037046778
000190 17 7a 62 3c 64 97 01 3c 09 aa b9 bc 1b e2 9f 3d
       0.013823054 0.0079096295 -0.022664087 0.07806798
0001a0 39 9e b0 3d 21 3c 78 bd ca 30 40 bc 86 3a b1 3d
       0.086239286 -0.06060422 -0.011730382 0.086537406
0001b0 ef 67 eb 3d 3c 4d 9c bd 5c 9d d8 3c ce 6b 8e bc
       0.11494433 -0.07631919 0.026442222 -0.01738539
0001c0 22 a9 c4 bd a3 ed 9a 3d 7c 9e c5 bc c8 0e a2 3d
       -0.09602572 0.07564857 -0.024123423 0.079129755
0001d0 ce 44 4a bd 90 c4 34 3d 0d 4a 05 bd 99 70 6c bd
       -0.049382024 0.04413277 -0.032541323 -0.05772457
0001e0 6f e9 a8 bd 3a 2b ca 3d 7c c3 0d bd c8 24 bb 3d
       -0.08247649 0.09871526 -0.034610257 0.09137875
0001f0 76 6c cb bd e8 a1 f8 3d 8c 77 8c bd 9c 94 2f 3d
       -0.09932797 0.12140256 -0.06858739 0.042866334
000200 67 c8 c9 3d d2 d7 a8 3d af 3c 41 3d 3a e4 dd 3d
       0.09852677 0.082442895 0.047177013 0.108345464
000210 6d db a4 3d 75 5a b2 bd 2f 1c 3f bd d3 b6 14 bd
       0.08049665 -0.087086596 -0.046657737 -0.036307167
000220 4f 6e 27 bd 29 09 a7 3d 16 ed 1a bc 55 57 49 bd
       -0.040876683 0.08156044 -0.00945594 -0.049155552
000230 ca 80 ba 3c c2 25 b2 bd 87 43 fc bd 4f 45 c7 bc
       0.02276649 -0.08698608 -0.12317567 -0.024325041
000240 0b f4 88 bd 21 d1 c5 bc 32 97 86 bd 79 50 91 3d
       -0.066871725 -0.024147572 -0.06571807 0.07095427
000250 b0 ad 85 3d d1 4a 95 bc bf f4 4a 3d 80 f9 5a bd
       0.06527269 -0.018224152 0.049549814 -0.053460598
000260 d2 26 c1 bc 46 12 a9 bd 1f fe 2b 3d 5d 83 22 3d
       -0.023578081 -0.082554385 0.041990396 0.03967606
000270 cf 41 c7 bd fd 46 58 bc 2f af c7 bd 5f e3 bb 3d
       -0.09729349 -0.013200519 -0.097502105 0.09174227
000280 a8 27 88 bd 61 ae f5 3c 55 7f a2 bd 74 16 13 3d
       -0.06648189 0.029990377 -0.07934443 0.035910085
000290 ea 80 b6 bd 47 4e 50 bd da 49 e0 bb 23 ef 22 3d
       -0.08911307 -0.0508559 -0.0068447413 0.03977884
0002a0 90 14 50 3c 3e b7 33 bd aa 68 64 3d 5f af 50 bd
       0.012700215 -0.043875925 0.055763878 -0.050948497
0002b0 e2 59 9c bd 2d 90 e0 bc 52 cf 9a bd 66 f5 61 3d
       -0.07634331 -0.027412498 -0.075590745 0.05516567
0002c0 9f da 88 3d 27 d2 cf bd 00 6c d8 3d 38 92 a9 3d
       0.06682324 -0.10147505 0.10567474 0.08279842
0002d0 e2 70 22 bd 07 41 f0 bd b2 18 20 bc f7 95 3a bd
       -0.039658435 -0.11731153 -0.009771513 -0.045553174
0002e0 a3 bb 0d 3d 4d d2 7a bd 13 af 94 3d 78 22 69 3d
       0.034602772 -0.061235715 0.07259955 0.056917638
0002f0 a6 4a 0d be 51 e4 40 3d f9 b1 dd 3d 61 bb 4b 3d
       -0.13798007 0.04709274 0.10824961 0.049739245
000300 e4 5a 98 3c a7 d5 0d 3e 94 2f dc 3c 11 ec 5c 3b
       0.018598028 0.13851033 0.026878156 0.0033710042
000310 4f b0 99 3d 53 46 b6 bd 41 f6 17 3e c2 db 24 3e
       0.07504331 -0.08900132 0.14840032 0.16099456
000320 0c ab a9 bd 41 ee 08 3e 56 cc b9 bd 37 72 ba bd
       -0.08284578 0.13372137 -0.09072177 -0.09103816
000330 2f e9 bc 3d 8b f3 f7 3c 62 c5 9c bc 2a 01 11 bd
       0.09224164 0.030267498 -0.019137088 -0.0354015
000340 cd 56 dd 3d 39 e4 1c 3d b0 74 73 3d a7 6f 8c bd
       0.108075716 0.038303588 0.059437454 -0.068572335
000350 85 22 b4 3d 1e b9 63 bd 0c 34 83 bd 4e ea 52 3e
       0.087956466 -0.055596463 -0.064064115 0.20597193
000360 be 2c 41 bc ae 05 2a 3e d6 dd 54 3e ed 3a 2e 3e
       -0.0117904525 0.16603729 0.20787749 0.17014666
000370 4a 01 0b 3e b6 65 a1 bc c1 6a a4 bd 0c cf de 3d
       0.1357471 -0.01970182 -0.08028174 0.10879335
000380 df b4 5c bd ba 20 a2 3d db 8f eb bc ec 94 6e bd
       -0.05388343 0.07916398 -0.02875512 -0.05824749
000390 90 42 bd bd 16 2a 9a 3d 1c 96 04 3e cd 32 82 3e
       -0.092412114 0.075275585 0.12947887 0.25429383
0003a0 0b 0b 99 3d cb 8d 65 bc ab f9 05 3e f1 ff 61 3d
       0.074728094 -0.014010857 0.13083522 0.055175725
0003b0 79 72 ea bc 7c 8b bc 3d 7c 3d 74 3d 7c 16 a7 3d
       -0.028619038 0.09206292 0.05962895 0.081585854
0003c0 42 d8 f6 3d a8 19 98 3d a2 e3 a2 3c 71 1f b4 3c
       0.12052967 0.074267685 0.019883934 0.021987649
0003d0 c6 5d d0 3c 7a 61 9c bc f7 5e 0d 3d 38 7b b9 3c
       0.02543534 -0.01908945 0.034514394 0.022641763
0003e0 86 6c fb bc c9 18 71 3d 07 89 9d bd 4d d8 54 3b
       -0.030691396 0.058861528 -0.076921515 0.0032477558
0003f0 77 87 4e bc 04 1e 81 3e d6 55 39 3c 24 52 1e bd
       -0.0126055395 0.25218213 0.011311969 -0.038652554

lstm.bias_hh_l0 f4 [256]
000000 9a fc 2d 3d 80 01 ac bd b7 bb 4a bc 09 ac 65 bd
       0.042477228 -0.083987236 -0.012373856 -0.05607227
000010 25 b6 ac 3d 38 e3 19 bd 0d 94 3c 3b b2 d5 b3 3d
       0.08433179 -0.03757021 0.0028774769 0.087809935
000020 63 56 11 3d e5 84 9e bd 3e 85 14 3e 87 e8 d1 bc
       0.035482775 -0.07740191 0.14503953 -0.025623573
000030 7c e7 9d bd 8b 00 c7 3d 97 a6 ef 3d 50 73 e0 3d
       -0.07710168 0.097169004 0.11701696 0.10959494
000040 c5 90 4e 3e a0 d5 82 3d 64 5b 2d 3d 90 6c b9 3d
       0.20172413 0.06388402 0.042323485 0.0905391
000050 a7 22 c3 3d ec eb b8 3c 69 59 82 bd da 0e 25 3e
       0.09528094 0.022573434 -0.0636471 0.16118947
000060 46 93 88 3c 78 3f 9f 3d e4 2b a5 3d f8 e6 13 bd
       0.016671788 0.077757776 0.08065012 -0.03610894
000070 21 0e 83 3d 37 ca 20 3e b6 7a 7f 3d 87 93 d8 3d
       0.06399179 0.15702139 0.062372886 0.105750136
000080 52 bf f1 38 21 2a 97 3d 7d 7e 09 bd 15 c2 2e bb
       0.00011527412 0.07381082 -0.033567894 -0.0026665975
000090 3c 4e 92 bc 41 01 5d 3c f9 0b 9e 3d bd e6 5a 3e
       -0.01785957 0.0134890685 0.07717127 0.21377082
0000a0 cc e2 c6 3d b6 32 15 bc 16 c2 ec 3d be d6 fd 3c
       0.09711227 -0.009106329 0.115604565 0.030986186
0000b0 5a 67 82 bd 3b 50 85 bd f8 ae 10 3e 56 85 03 3e
       -0.06367369 -0.06509443 0.14129245 0.12843832
0000c0 99 c9 b1 3d f1 01 95 3d 21 18 ad bc 8a dc a0 bc
       0.0868103 0.07275761 -0.02112967 -0.019636411
0000d0 3c ce 06 3d 5d c0 52 3d c3 4c fe 3d 49 04 86 bd
       0.032911524 0.051452983 0.12416985 -0.06543786
0000e0 7f 5f d7 3d 05 9b 99 ba d2 85 11 3e 0b 28 04 3c
       0.10516261 -0.0011719173 0.14211205 0.008066188
0000f0 1f 4c f6 bc d1 44 be 3c c7 bb 92 bd 61 76 2e bd
       -0.030065594 0.023226174 -0.07164722 -0.042593364
000100 fa 7c 95 bd a2 f7 3d 3d ab 9e 28 bc e1 e4 fe 3a
       -0.07299228 0.04637874 -0.010291736 0.0019446873
000110 81 98 e0 3d b2 5e e9 bd 3f 7a 10 3d 94 5c ab bd
       0.10966588 -0.11395015 0.035272833 -0.08367267
000120 d8 bf 3e bc c0 6f 19 bd 74 81 ac bb 84 28 db bd
       -0.011642419 -0.03746009 -0.0052644555 -0.10701087
000130 bb b2 c5 bd 5d 24 9d bd 62 1b 0a 3e d3 61 97 bc
       -0.09653231 -0.07672951 0.13487008 -0.018479263
000140 3a b7 ed 3a a5 d6 bd bd f8 ce 8e 3d 48 c4 2c 3c
       0.0018136271 -0.09269456 0.0697307 0.010544844
000150 5e 09 d4 bd 5f b4 98 bd 69 f2 59 bb dc c5 b1 3c
       -0.10353349 -0.07456278 -0.003325606 0.021700792
000160 f6 1e 1b bc 61 c6 0a 3e a3 66 c5 3d 32 60 04 3b
       -0.009467831 0.13552238 0.09638717 0.0020198938
000170 3e 73 7e 3d f4 77 30 3e 89 38 e0 3c 27 13 f7 3d
       0.062121622 0.17233258 0.027370708 0.120642
000180 87 36 55 3d 3d fc 5c 3d f5 e9 c8 3d f2 f7 79 3d
       0.052053954 0.05395149 0.09810249 0.061027475
000190 45 51 48 bd 39 31 a8 bd 26 e9 bf bd 6b 7b c0 ba
       -0.04890563 -0.082125135 -0.093706414 -0.0014685219
0001a0 6b ee 57 3d e4 52 d3 3d 49 96 66 3d b4 31 ee bd
       0.052717607 0.103185445 0.056295667 -0.11630574
0001b0 bd 27 e0 bd 31 a3 3b 3d 21 68 1c 3e 04 38 54 3d
       -0.109450795 0.04580993 0.15274097 0.051811233
0001c0 d4 3a 57 3c fb 8e bd bd e7 02 d4 bc 38 fd a2 bd
       0.013136584 -0.09255787 -0.02588029 -0.07958454
0001d0 72 22 06 3d d8 11 07 be 5e e4 2b bd dd 72 5a 3d
       0.032747693 -0.131904 -0.041965835 0.0533322
0001e0 f9 e9 9b 3c 68 a8 54 3d c5 ab 19 bc ff e2 c9 3c
       0.019032465 0.051918417 -0.009379332 0.024644373
0001f0 f7 34 05 bd bb 8b 0d 3e 21 da 19 3d 4d 50 17 bd
       -0.032521214 0.13822834 0.03756154 -0.036941815
000200 b7 a3 a5 3d 9d 17 b0 bd e9 14 b4 bd a2 6d ee 3d
       0.08087867 -0.08598254 -0.08793051 0.116420045
000210 c2 8f 9b bd 37 d3 46 bd be 7b 4f bc 45 a7 a8 3d
       -0.07595779 -0.048541274 -0.01266378 0.08235029
000220 65 33 d1 bd 78 01 7a bd 75 34 a5 3d a2 65 e7 bd
       -0.10214881 -0.061036557 0.08066646 -0.11298682
000230 9a 09 cd bc cf ba 68 3d f4 7b 8a 3d 22 e6 71 3d
       -0.025028992 0.05681878 0.067619234 0.059057362
000240 cd 90 8e bc 7b 37 b6 bd 07 31 8e 3d bf 68 bf bd
       -0.01740303 -0.08897301 0.06942945 -0.093461506
000250 3a 9f c4 bd 2d 95 ea 3d 12 7b 9c bd 55 af 80 bb
       -0.096006826 0.11454234 -0.07640661 -0.003927151
000260 97 95 d3 3d 47 66 db 3c 9c b4 7d bd 13 82 1e bc
       0.103312664 0.026782168 -0.06193982 -0.009674567
000270 c5 45 dc 3d 6b 26 98 bd db 41 58 bd 9c 6b 46 3c
       0.10755495 -0.07429203 -0.05279718 0.012110617
000280 36 d8 57 3d 51 91 de 3c df fa ed 3d 8b 08 db 3d
       0.05269643 0.027168902 0.116201155 0.10694989
000290 6d 3a dc bd fd 7f df bd d3 fe 82 3d 60 dd 95 bd
       -0.10753331 -0.10913084 0.0639626 -0.073176146
0002a0 0f a0 53 3c 90 de 0b 3c 1e fb f8 3c 5e 6f 01 bd
       0.012916579 0.00853695 0.03039318 -0.03160035
0002b0 6c e1 83 bd 84 9c 0b bd 2f ea e7 bc 3c 97 75 3c
       -0.0643948 -0.03408481 -0.02830991 0.01498967
0002c0 14 73 49 bd 60 bf c6 bd 48 b8 4e bb 8a 20 77 bb
       -0.049182013 -0.09704471 -0.0031542946 -0.0037708604
0002d0 e7 20 39 bd 95 9b d2 3b 33 b2 bc 3d af 8f 82 bb
       -0.045197394 0.006427238 0.09213676 -0.0039844136
0002e0 46 db a6 3d 70 c6 2d bd 72 7b d7 bd 24 cb b1 3c
       0.08147292 -0.042425573 -0.10521592 0.02170331
0002f0 7e e3 c4 3c 3e bd c0 bc a4 52 03 3e 97 21 c1 bd
       0.024034258 -0.023527738 0.12824494 -0.09430235
000300 e3 13 72 bd 60 fe 01 3e 72 18 8d 3d d9 53 6f 3d
       -0.059100997 0.12694693 0.06889428 0.058429573
000310 8f a8 af 3c b2 5d 03 bc fc 35 e4 3d 2f d8 c6 3c
       0.02144268 -0.008017944 0.11143109 0.024273006
000320 d7 61 c2 3c 0c e2 a3 3d 24 8e 3e bc cd 6e b6 bd
       0.023728294 0.080020994 -0.011630569 -0.08907852
000330 ac 93 bf 3d 50 e7 a5 bc 57 f2 8a bc 7e 8a e1 3d
       0.09354338 -0.0202519 -0.01696126 0.110127434
000340 ab 0c 1a bd f8 25 ba 39 f2 48 ce 3c 95 1b 91 bc
       -0.037609737 0.00035504973 0.025181267 -0.017713347
000350 a3 26 f4 3d 06 b8 e6 3b f7 66 b2 bb 92 25 50 3e
       0.11921432 0.0070409803 -0.0054444033 0.20326832
000360 4e 76 04 3e 6b 76 c7 3d bc 96 43 3c 6a fd f4 bc
       0.12935755 0.09739383 0.011937793 -0.029905993
000370 2a 65 91 bd 28 89 0a 3e 6f 80 70 3d 7a a1 e6 3b
       -0.07099374 0.13528883 0.058716234 0.0070382925
000380 0e b2 86 3d 0d be ab 3d 0a a1 6c 3d 54 99 a4 bc
       0.0657693 0.08385859 0.057770766 -0.020092644
000390 2e 5f 5f 3d 56 bb 6b bd 5f e1 d7 3b 78 d4 47 3d
       0.05453413 -0.057551704 0.0065881456 0.04878661
0003a0 2d 95 66 bd 35 7d 8e bd d8 f5 f8 bc b1 b7 9a bd
       -0.05629461 -0.06957475 -0.030390665 -0.075545676
0003b0 42 73 0d bd af 3a 21 3d b1 aa 18 bd d5 45 4b bd
       -0.034533747 0.039362606 -0.03727216 -0.049627144
0003c0 3b 33 ae 3b 08 d0 83 3d 1e c8 5d 3d c6 86 9c 3c
       0.0053161657 0.06436163 0.054145925 0.019107234
0003d0 61 d0 ba 3d f5 6a d8 bc f9 76 1a 3d 53 2b 0f 3e
       0.09121776 -0.026418189 0.037711117 0.1398137
0003e0 bf 02 ea 3c 0e 2c 9f 3d 94 03 5d bd 54 71 96 3d
       0.028565763 0.07772075 -0.05395849 0.073458344
0003f0 a3 95 b4 3d 7d ab 30 3e 32 52 9b bd ba ce 68 bd
       0.088176034 0.17252918 -0.07584037 -0.056837775

lstm.weight_ih_l1 f4 [256, 64]
000000 f3 ac 3e 3d c2 75 d4 3d 37 fd 9b bd a4 a9 0d 3e
       0.046551656 0.10374023 -0.07616656 0.13834244
000010 a2 51 2e bc 40 64 78 bd 17 6f 9a 3d 74 90 db bc
       -0.01063958 -0.06064248 0.0754072 -0.026802279
000020 4b b3 ae bc f1 65 e6 3d 24 46 dc 3d b0 c0 a1 bd
       -0.021325728 0.112499125 0.10755566 -0.0789808
000030 dc ea 8a bd ec 0e cc bc f2 9a ea bb f7 a3 7f 3d
       -0.06783077 -0.024909459 -0.007159584 0.06241223
000040 f5 fb 01 be 04 f6 c4 bd 43 78 29 bb 90 0c 46 3d
       -0.1269377 -0.09617236 -0.0025859035 0.048351824
000050 8c 9d 23 be 76 84 85 bd dd 8c f5 3d 87 44 3d 3d
       -0.15978068 -0.065194055 0.11989758 0.04620793
000060 b3 90 2d bd 72 81 07 be 72 56 96 3d 4c 58 ce bd
       -0.042374324 -0.13232973 0.07340707 -0.10075435
000070 20 40 8b bc 01 25 8d 3c 31 7f 31 3d 29 5a 9f bd
       -0.01699835 0.017229559 0.04333419 -0.077808686
000080 46 a7 a7 3d 99 90 59 bd 26 63 8f 3d f9 02 e0 3c
       0.08186202 -0.053116415 0.07001333 0.027345167
000090 c6 5d dc bd cf 37 d3 3d f3 58 c9 bd 51 ae a2 3d
       -0.10760073 0.10313379 -0.09831419 0.079434045
0000a0 fe 04 3a bd 77 52 1e bc 5e 53 20 3d 15 57 0a 3d
       -0.045414917 -0.009663216 0.039142005 0.033774454
0000b0 d1 12 a7 3c b0 3b df bc 4a 35 2e 3d 61 1b cc bc
       0.020394715 -0.02725014 0.04253129 -0.024915399
0000c0 11 19 79 bd 22 b6 94 3d f6 d0 b5 bd 6c 92 fe bc
       -0.06081492 0.072613016 -0.08877747 -0.031075679
0000d0 58 b3 6f bd c4 82 e4 3c b6 df 55 bd 4c 5d 7a bd
       -0.058520645 0.027894385 -0.0522153 -0.06112413
0000e0 99 35 a4 3d 3f d1 bf bc 76 08 0b 3e 4f ed 17 3d
       0.080180354 -0.023415206 0.13577446 0.03709155
0000f0 2f 79 9e 3b da ed 3b 3e 7e 31 d3 bd bb 48 14 bd
       0.0048362236 0.18352452 -0.10312174 -0.036202174
000100 8e c9 06 bd c5 cc d1 3c 88 a1 b3 3d ae 6d b6 bd
       -0.03290706 0.025610337 0.08771044 -0.089076385
000110 c2 e4 c6 3c 29 e2 d4 3b e9 9e 6c bd b8 9d 5f be
       0.024279002 0.006496687 -0.057768736 -0.21837509
000120 af 66 c7 3d 1c d6 d5 bd 96 a1 d2 bd 14 9a bc bd
       0.09736382 -0.10441229 -0.10284726 -0.092090756
000130 f0 97 ad 3d 00 0b 7f 3c e2 7a cf bd 2d ef 0c bd
       0.084762454 0.015566587 -0.1013086 -0.034407783
000140 96 39 57 bc b0 1b 33 bd db 2b 85 bd a4 3a 5c 3d
       -0.013136288 -0.043727577 -0.065025054 0.05376686
000150 fa 1e 92 3c 66 0a 74 3d bb 6a 8d bd 38 f6 e7 bd
       0.017837036 0.05958023 -0.06905123 -0.113262594
000160 06 79 91 bc b0 7e 60 3c dc b5 0c b9 bb 39 80 bb
       -0.017757904 0.01370208 -0.00013419188 -0.003913132
000170 8a 1c e9 3d 46 d9 53 3d db 91 54 3e 5d e0 a9 3d
       0.113823965 0.05172088 0.20758764 0.08294747
000180 d3 ed 5a bd 59 fb 2e bd 11 12 a5 3d 9a 44 d8 3d
       -0.053449463 -0.042720173 0.080600865 0.1055996
000190 ad e0 d4 3d f2 23 20 3d a0 99 1c 3d 8c 8a 9e b8
       0.10394416 0.03909678 0.038232446 -7.5598335e-05
0001a0 9a 66 95 bd 02 83 0e bd bc 64 60 bd 1f 1b e0 3d
       -0.0729496 -0.034792908 -0.054783568 0.10942673
0001b0 3c 04 06 3c 13 19 56 3d 58 7f f2 bd 64 34 a6 bc
       0.0081797205 0.052270006 -0.11840695 -0.020288654
0001c0 6e 11 a4 3c 39 c2 8b bd 9f 7c 5d bd fc dd fb 3c
       0.020027842 -0.068241544 -0.054073926 0.030745499
0001d0 88 e6 18 ba 12 1b d3 bd 0a 87 5d bd 29 8a 90 3c
       -0.00058326917 -0.103078976 -0.05408386 0.017644005
0001e0 d5 28 fa 3d 17 79 01 bc 3b 98 17 be b4 3d 3d bb
       0.12214819 -0.007902405 -0.14804165 -0.002887589
0001f0 1e 02 b9 bd c2 c4 da bd f9 4e 2a bd 78 de 2e bd
       -0.09033607 -0.1068206 -0.04157922 -0.04269263
000200 e0 8f 08 3e ad e4 65 3d f9 3d 6c 3c 32 cc 38 3d
       0.13336134 0.056126285 0.014419072 0.04511661
000210 86 0d 1c 3e 93 a0 a6 bd 99 bb dc 3a 1c ca d5 3d
       0.15239534 -0.08136096 0.0016840576 0.1043894
000220 3b 53 01 3d cc 69 63 3c 77 93 03 3e 7b 91 af bd
       0.031573515 0.013880204 0.12849222 -0.0857267
000230 b7 ad 95 bd 11 29 5f 3b fe d1 36 3d 80 91 c3 3d
       -0.07308524 0.0034051577 0.044633858 0.09549236
000240 0d c1 f7 bd 73 0a 12 3b 7a a7 89 bc fd 22 a6 3a
       -0.120973684 0.002228406 -0.016803492 0.0012675222
000250 8c 60 15 3d f0 9a ff 3d ce bd 81 3d 03 8c cd bd
       0.036469027 0.12480724 0.063350305 -0.10036471
000260 b0 f9 2e 3d 1c f3 63 3d 09 70 44 be e0 1b 8b bd
       0.04271859 0.05565177 -0.19183363 -0.06792426
000270 1d 71 a0 bd b9 82 6b bc 54 38 40 bc 1d ab 0d 3e
       -0.07834075 -0.014374428 -0.01173218 0.13834806
000280 34 2a 16 3c 94 c1 88 3d a6 fc b7 bd 86 c3 b5 3d
       0.009165335 0.06677547 -0.08983736 0.08875184
000290 9c 35 09 3d b1 05 a6 bd 36 96 0f bd c1 2a 09 3d
       0.03349839 -0.08106554 -0.03505536 0.03348804
0002a0 74 71 92 bd d6 4c 34 bd 43 a4 75 3d d5 b6 e6 3c
       -0.07150546 -0.04401859 0.059971105 0.028163353
0002b0 98 5d 59 3d d3 c1 0e be 41 e2 b8 3b 00 39 f0 bd
       0.053067774 -0.13941126 0.005642206 -0.11729622
0002c0 66 95 8d bd 1e 54 4f 3d 55 51 b9 bd 0c 4a 37 3d
       -0.06913261 0.05061733 -0.09048716 0.04474835
0002d0 f2 25 38 bd c8 28 da bd eb 80 13 3d 5f 44 3f bd
       -0.044958062 -0.1065231 0.036011618 -0.046696063
0002e0 d3 f8 38 bd 47 bc 6e bd 55 6d 24 bc e8 05 b4 bd
       -0.045159172 -0.058285024 -0.010035832 -0.08790189
0002f0 44 6c bf 3d 04 5b 05 bc ac 67 0e 3d 38 b4 e1 3d
       0.09346822 -0.008139376 0.034766838 0.11020702
000300 83 b9 8b bd 1b 32 77 bd f9 34 57 bd a1 27 b3 bd
       -0.06822493 -0.06035052 -0.052540753 -0.08747793
000310 d4 43 a9 3c 59 8e 2f bd d7 19 e2 bd e1 5a ab 3d
       0.020662226 -0.042860363 -0.11040085 0.08366943
000320 09 e8 24 3d 74 a0 1a bd b6 31 c3 bd ac 50 8b 3d
       0.04026035 -0.037750676 -0.09530966 0.06802496
000330 81 b7 da bd bc 85 ff bc c4 06 47 3d 55 21 1f 3d
       -0.10679532 -0.0311917 0.048590437 0.038850147
000340 0f 83 c4 3d 12 db 2e bd 20 3e b9 3d d3 5f d7 bc
       0.0959531 -0.04268939 0.090450525 -0.02629081
000350 5d 7a 4d 3d ea c5 ff bc 6b 11 a0 bd 11 30 50 3d
       0.050165523 -0.031222302 -0.07815822 0.05082709
000360 a6 be 4c 3c e1 95 63 bd 0b d7 6f bd a0 4a 42 3d
       0.012496626 -0.055562858 -0.05855469 0.04743445
000370 01 c5 6b 3c a3 60 17 bd 4d 37 88 bd 93 a8 d2 bd
       0.014390231 -0.036957394 -0.06651173 -0.10286059
000380 19 91 fd 3d 75 87 c2 3d e8 39 a0 bd a0 42 be 3b
       0.12381191 0.09498493 -0.07823545 0.005806282
000390 7e b3 4b bd 8c 5b b1 bd 86 6a 6a 3d f9 58 13 3e
       -0.049731724 -0.08660039 0.057230495 0.14389409
0003a0 87 15 5a 3c 07 d9 aa bd 24 c1 cd 3c 8d 00 a1 bd
       0.013310797 -0.08342176 0.02511651 -0.07861433
0003b0 76 2d de bd 2f b0 96 3d a6 17 11 bd ab 6a 82 bd
       -0.10848515 0.07357823 -0.035422944 -0.063680016
0003c0 5d 43 cd bd 39 64 9e 3d 75 97 29 3d fd 0f 85 3d
       -0.10022614 0.0773396 0.041404206 0.0649719
0003d0 65 41 e6 3d 68 a5 94 bc 5b 8d a7 bc 25 ea d5 3c
       0.11242942 -0.018145278 -0.020453146 0.026112625
0003e0 fa 14 8d ba 9a dc 4e 3c 16 d4 0a 3d 87 7e 8d 3d
       -0.0010763698 0.012625838 0.033893667 0.06908899
0003f0 b4 23 d9 bd e7 14 e3 3d 4f 8a 8f 3d 11 f3 e3 3d
       -0.10602513 0.11087971 0.07008802 0.111303456

lstm.weight_hh_l1 f4 [256, 64]
000000 a6 29 84 3d 35 df 09 be 36 81 cc bd 78 2e 0d be
       0.06453256 -0.13464053 -0.099855825 -0.13787258
000010 b0 36 d9 bd 73 23 ef 3c b6 b2 0d be 2b 30 03 be
       -0.10606134 0.029191708 -0.13837704 -0.12811343
000020 0a a1 b9 3d 68 51 c3 bd 4b 22 aa bb f7 68 15 bd
       0.09063919 -0.095370114 -0.0051920763 -0.036477055
000030 fb 58 48 3d 3d fb 46 bd 8c 16 a5 bd d9 b4 d9 bd
       0.048912983 -0.048579443 -0.08060941 -0.10630197
000040 79 97 a8 bd df 18 e6 3c 63 2b dc bd 11 54 11 3e
       -0.08232016 0.028088031 -0.10750463 0.14192225
000050 4f d1 3e 3d d3 1f 00 3d b0 c6 99 3d 36 e5 47 bc
       0.04658633 0.03128035 0.075086 -0.012200644
000060 c7 76 ac bd 71 8e d3 3d cf 45 bf bd b8 72 ec bd
       -0.084210925 0.10329903 -0.09339487 -0.11545318
000070 e9 bb ef bd 69 63 3f 3d 00 85 b8 3d 00 0f d6 3d
       -0.11705763 0.046725664 0.09009743 0.1045208
000080 ad 81 cb 3c 97 d1 e7 bd 58 c9 ee 3d 87 fa 3a bc
       0.024842108 -0.11319273 0.11659497 -0.011412269
000090 ef df fd 3d ba 3d 3d 3d d2 cf 2d 3d 8c 42 c4 bc
       0.123962276 0.046201445 0.04243452 -0.023957513
0000a0 8c df 10 3d d3 17 b2 bd 8f 5d d1 3d 65 71 c0 bd
       0.03536944 -0.0869595 0.10222923 -0.09396628
0000b0 79 00 cf 3d 44 10 c1 bd 70 e6 ce bd 02 13 1c bd
       0.10107512 -0.094269305 -0.10102546 -0.038104065
0000c0 c5 be ab bd 25 a1 02 3e 43 a7 0a 3e 10 75 a5 3d
       -0.08385996 0.12756784 0.13540368 0.080789685
0000d0 7c c0 eb bd 72 13 50 3d d1 e3 29 bc 42 ff b7 3d
       -0.11511323 0.050799794 -0.010369257 0.089842334
0000e0 1e 18 39 bd b7 6a 9d 3d 31 f6 76 3d 9f 37 9c 3c
       -0.045189016 0.0768637 0.06029338 0.019069491
0000f0 6e 62 00 be 6e ef c3 3d 24 0e f1 3d 10 00 96 bd
       -0.12537548 0.09567152 0.11770275 -0.07324231
000100 b4 5f 93 3d 16 10 2a 3d 23 ba 98 3d 6c bf d5 3b
       0.07195988 0.041519247 0.07457378 0.0065230634
000110 56 13 61 bd fc 25 ff bd 55 5d cc 3d 15 65 a3 3c
       -0.05495008 -0.12458417 0.09978739 0.01994566
000120 ed f2 61 3d e4 26 79 3d 3b c3 ac bd 0d 48 9c bd
       0.055163313 0.060828105 -0.08435675 -0.0763093
000130 e2 cd 24 3c 7b 66 30 bd d6 ac e4 bc e6 13 b3 3d
       0.010058852 -0.043066483 -0.027914446 0.0874403
000140 fc ce 1e 3d 5a 28 28 bc e6 f3 90 3d 3e ef ff bc
       0.038771614 -0.010263527 0.0707777 -0.03124201
000150 6b 02 d8 3b 60 0f 89 3d 4c 3d ce 3d 46 14 9d 3d
       0.006592085 0.06692386 0.10070285 0.076698825
000160 bc c0 c2 ba 4b 59 69 3d 9d a8 b7 bd 78 5d a0 3c
       -0.0014858465 0.056969922 -0.08967707 0.01957582
000170 12 4d 13 bd c4 af 40 3d 5b 0d 95 3d 59 87 27 bd
       -0.03596217 0.047042623 0.07277938 -0.040900562
000180 2b 18 aa 3d 58 c9 3f bc 4d eb 01 be 70 92 be bd
       0.08305391 -0.011705719 -0.12687416 -0.093052745
000190 e5 aa a3 bc b0 a7 bf 3d 55 b9 40 bd 92 20 f4 bc
       -0.01997895 0.09358156 -0.047051746 -0.029800687
0001a0 22 ed b5 bd d1 f6 6f bc 98 b2 cc 3d fb 29 c1 bc
       -0.0888312 -0.014646248 0.099950016 -0.023579588
0001b0 0f 4a f3 bc ee 3f b1 3d 4b 11 02 3e b6 fb 80 3b
       -0.0296984 0.08654772 0.12701909 0.0039362563
0001c0 f3 bb b1 bb b5 ec b3 3d b4 14 80 3d 8f 80 5b bd
       -0.0054240166 0.08785383 0.06253949 -0.0535894
0001d0 fb cd 02 be b7 21 b2 3a e7 c7 16 be 76 a4 94 bd
       -0.12773888 0.001359037 -0.14724694 -0.07257931
0001e0 52 32 c0 3c 79 a7 52 3c 20 4f 98 bd 2c 17 54 bc
       0.023461495 0.012857311 -0.07436967 -0.012944978
0001f0 8b 82 d9 bd 98 bb ca bd 6b c7 86 bd af 3d c8 bd
       -0.10620602 -0.09899062 -0.06581005 -0.0977739
000200 fb 69 97 3d 15 aa ab 3b 11 df 15 3e 22 f5 0e bd
       0.07393261 0.005238781 0.14635874 -0.034901746
000210 da 4d a0 3d 0b 36 62 3b b4 48 12 be d2 e4 13 bd
       0.07827349 0.0034517075 -0.14285547 -0.036106892
000220 cd bb 36 bd 03 d7 fc bb 3a 1c 8e 3c b9 89 77 3d
       -0.044612695 -0.007716061 0.017347444 0.060434077
000230 90 88 07 3d 72 bc c2 bd d2 66 ca bd 1e 1f ad bd
       0.03308922 -0.09508599 -0.09882893 -0.08453201
000240 71 50 8e bd a7 1a 97 3d d4 fe 08 bd c3 98 a5 bd
       -0.06948937 0.073781304 -0.033446148 -0.080857776
000250 e0 a1 f7 3d b8 9c c9 3d 40 54 c7 3d 28 0c bc bd
       0.12091422 0.09844345 0.09732866 -0.09182006
000260 ac 3b dc bd 44 ba d4 3d 41 64 c2 3d 3f 3c a9 bc
       -0.10753569 0.1038709 0.09491778 -0.02065861
000270 08 af cc 3d 8b 68 0a be 43 1e 49 bc 67 e9 e7 bd
       0.09994322 -0.13516442 -0.012275281 -0.11323815
000280 5f 85 03 be 2e ca cb 3d 2c da 0b bd 8d 86 aa bd
       -0.12843846 0.09950672 -0.03414361 -0.08326445
000290 04 68 1f be 90 67 7e bd 47 1b 94 bd 5a 09 d1 3d
       -0.15567023 -0.062110484 -0.07231765 0.10206862
0002a0 70 3e c8 bc f1 c0 e0 bd 10 7b fb bc d2 d1 bc 3d
       -0.024443835 -0.10974301 -0.03069833 0.092197075
0002b0 df bd 0e be 7a 5b 02 3e 17 71 13 bc b0 e2 b1 bd
       -0.13939618 0.12730208 -0.008999131 -0.08685815
0002c0 3e 8a a8 3b 05 27 80 3b af 3e 31 bb 99 d0 09 be
       0.005143433 0.0039109015 -0.002704542 -0.1345848
0002d0 57 05 20 3d 57 c0 d8 bd d1 28 bf 3c 90 34 4d 3d
       0.039067592 -0.10583561 0.023334892 0.050098956
0002e0 7a cf d9 3c e5 b7 d8 bc 0b 48 8d bc 5a fc 57 bd
       0.02658819 -0.026454875 -0.017246267 -0.052730896
0002f0 54 29 20 bb 38 74 8d bd 04 25 4d bd bd ad d0 3d
       -0.0024438696 -0.069069326 -0.05008413 0.10189388
000300 1a 54 c7 bc 9e 0e dc 3b b0 09 ff bb f8 c1 c0 bd
       -0.024332095 0.0067156097 -0.0077831373 -0.094119966
000310 66 c2 2b 3d 6c 71 c3 3d 4d 23 c9 bd 3a c2 fd bd
       0.04193344 0.09543118 -0.09821186 -0.123905614
000320 0b 1a ad bd 3f a9 16 bd d1 91 64 bd a4 d2 62 bb
       -0.08452233 -0.0367825 -0.055803124 -0.0034610415
000330 f6 5a 25 bd 5b 0d 05 bd 83 13 48 bc bc 43 36 3b
       -0.04036995 -0.03248344 -0.012211683 0.002781137
000340 c3 c7 bd 3d bf d5 c3 3d a4 f1 25 bc de bc 8a 3c
       0.09266617 0.09562253 -0.010128412 0.016935762
000350 29 f6 d4 3d d4 72 e8 3c 4b f4 bb b9 47 58 29 3d
       0.10398514 0.028375067 -0.00035849432 0.041343953
000360 5a d5 9d 3d fb b7 1d bd 99 a5 94 3a f5 03 cd 3c
       0.07706709 -0.038505536 0.0011340856 0.0250263
000370 a6 40 b6 bc 16 d8 2c bd ff aa 0d bc 89 f6 fc bb
       -0.022247624 -0.042198263 -0.008646726 -0.007719819
000380 15 83 65 3d 8b 75 84 3d c7 0a 6f 3d 15 9d 00 3e
       0.056033213 0.06467732 0.058359887 0.12559922
000390 7e 02 bc bc 19 41 35 bd a5 c2 bb 3d 81 87 fa bd
       -0.022950407 -0.044251535 0.09167985 -0.122328766
0003a0 6e e0 0b ba 8a 2c c6 bd 02 25 56 3d 2f b2 b9 3d
       -0.0005335872 -0.09676464 0.052281387 0.09067189
0003b0 89 f7 a6 bd dc 87 22 bd d4 4e 11 3d f5 22 2f 3d
       -0.08152682 -0.039680347 0.035475567 0.042757947
0003c0 76 4c 9a 3d 45 cf 0e 3c 1d 7a be 3c 09 b1 63 3d
       0.07534115 0.008716409 0.023251588 0.055588756
0003d0 a0 05 6f bd 1c ff dc 3d 96 2c db bd be ca fe 3d
       -0.058354974 0.10790846 -0.107018635 0.12441014
0003e0 e4 e0 4e 3d d3 56 c0 bd 77 82 4e 3d c6 f6 d7 3d
       0.05050744 -0.093915604 0.05041739 0.10545115
0003f0 6d 09 1d 3d 21 af ac bd ba 72 e7 3c bf e5 16 bc
       0.038339067 -0.08431841 0.028252948 -0.009210049

lstm.bias_ih_l1 f4 [256]
000000 b6 6a b7 bc 25 32 55 3d e4 37 02 3e 1c 66 5c 3c
       -0.02238975 0.052049775 0.12716633 0.013452079
000010 be 19 bf bd cd 5b d7 3d 58 87 e3 3d 60 90 c3 3c
       -0.09331082 0.105155565 0.11109799 0.023872554
000020 d0 34 c8 bd 7d 2e 41 3c 6c 5f ae bd 5c f5 a8 bd
       -0.09775698 0.011790869 -0.08514294 -0.082499236
000030 37 08 0e bd be 83 a1 3d 04 15 c9 bd 56 60 7f 3d
       -0.034675803 0.07886456 -0.098184615 0.062347732
000040 81 6d 11 bd dc 65 ff bd 4b 73 ef 3d 4a df 3b 3d
       -0.03550482 -0.124706 0.11691912 0.045867242
000050 a2 37 04 3d 0c ec e2 bd 5e 5a ba 3b 16 95 a7 3d
       0.032279618 -0.110801786 0.005687042 0.08182733
000060 9a 80 a0 3c 30 9a 92 3d 1c a8 0d 3d 0e ea c4 3d
       0.019592572 0.07158315 0.03458415 0.09614955
000070 0a 7b be 3b ca d8 c7 bd 1a cb 1b bd c9 88 97 bd
       0.0058130072 -0.09758146 -0.03803549 -0.073991366
000080 cc 51 a5 bd b4 c2 b3 bd 3e b4 fd 3d cc 7e d5 bc
       -0.08072242 -0.08777371 0.12387894 -0.026061438
000090 b7 64 37 3d 24 e9 ad 3d 74 93 a7 3d ba 6b db bd
       0.044773784 0.08491734 0.08182421 -0.107139066
0000a0 7c 7d d8 bd c7 6d c4 3c ac 13 a9 3c 21 01 95 bd
       -0.10570809 0.023978127 0.020639263 -0.07275606
0000b0 c1 28 51 bd c1 65 c4 3d f1 89 fa 3d 2a f4 06 3e
       -0.051064257 0.095897205 0.122333415 0.13179079
0000c0 b4 4a 3f 3d c3 78 01 3b df 7f a0 3d ac dc 96 bd
       0.0467021 0.0019755817 0.078368895 -0.073663086
0000d0 9b bf d9 bd 4f a5 11 bc 8a 01 b4 bd 23 8c 0f 3e
       -0.10632249 -0.00888951 -0.08789356 0.14018302
0000e0 0c c8 83 bd 30 6f 4f 3c b9 98 16 3d 57 b3 26 bd
       -0.0643464 0.0126607865 0.03676674 -0.040698376
0000f0 ca 3d a2 3c f8 fa 73 bd d8 4d 84 bd 80 d0 85 3d
       0.019804854 -0.059565514 -0.0646016 0.06533909
000100 7a da 89 bd b4 ea c7 3d 6d b0 ff 3d 02 f9 32 3d
       -0.06731124 0.09761563 0.124848224 0.043694504
000110 28 1a af bd 2f 28 a5 bd 84 72 d5 3d 77 7a aa bd
       -0.08549911 -0.08064305 0.10422233 -0.083241396
000120 b6 36 95 3c 73 e7 c6 bd d3 f9 4e bd 91 30 ca 3d
       0.018214565 -0.09712114 -0.05053122 0.098725446
000130 56 0e d7 3d 6c 0a e9 bb b4 42 6e bd bf bc 48 3d
       0.10500781 -0.007111838 -0.05816908 0.049008127
000140 4d a3 c8 bd 11 29 2b bd fc 01 3f 3d 91 46 88 3d
       -0.09796772 -0.04178721 0.04663275 0.066540845
000150 ef cd 71 bd 66 bb fd 3d 4a e7 12 3e 8f 2b c8 3b
       -0.059034284 0.12389259 0.14346042 0.006108708
000160 fe 30 6b bd 36 e9 93 bd a7 3d 0f 3e 00 df 7e 3d
       -0.05741977 -0.07222216 0.13988362 0.062224388
000170 1c 6a 63 3d b6 0a 44 bd ef 03 47 bc e7 8c 0e 3c
       0.055521116 -0.047861777 -0.012146934 0.008700586
000180 95 db b4 3d 80 a8 fc bc 38 63 d0 3d 2e 26 16 bc
       0.088309444 -0.030842066 0.101751745 -0.009164376
000190 96 e2 cf bd 64 e3 98 bd a1 b5 8a 3d 14 d4 96 3d
       -0.1015064 -0.07465246 0.06772924 0.073646694
0001a0 a4 ce 77 3d ca 5c cb bb 88 5f 65 bd c5 06 30 bd
       0.060499802 -0.0062061297 -0.05599931 -0.042975206
0001b0 9e e2 b7 bd bb 33 64 bd f1 7c 75 3c 06 50 94 3c
       -0.08978771 -0.055713397 0.014983402 0.018104564
0001c0 49 3b b0 3d 67 db eb 3c 7d cd eb bb 00 bc b2 3d
       0.08605058 0.028791143 -0.007196127 0.087272644
0001d0 04 76 a5 3d 8a d5 38 bc 6e e4 90 3c d8 db c5 bd
       0.0807915 -0.01128138 0.017687049 -0.096610725
0001e0 1a b8 de 3d 00 ae 6d 3c da 2b 92 3d bf f9 97 3d
       0.10874958 0.014506817 0.0713727 0.07420682
0001f0 0d 6b 06 3d 76 04 30 bd 23 f8 26 3c 0f 1e 9c 3d
       0.032816935 -0.042973004 0.010190996 0.07622921
000200 1e 5c 8f bd 56 30 ea bd 71 19 b8 3d 7d 5f 9b bc
       -0.06999992 -0.114350006 0.089892276 -0.01896643
000210 96 1e 31 bb 80 c2 6a 39 02 38 17 be bd a6 94 bd
       -0.0027026287 0.00022388436 -0.14767459 -0.07258365
000220 3d a6 b5 bd e4 04 89 3c 29 69 e0 3d 0f cc 20 3d
       -0.08869598 0.016725965 0.10957558 0.039257105
000230 15 97 ae ba 31 82 38 bd 82 bf 8b bc b4 1e cf 3c
       -0.0013320172 -0.045046035 -0.017059091 0.025283195
000240 85 2b 96 3d 8e aa f5 bb f1 5a bc bc b8 ac 21 3d
       0.073325194 -0.0074971383 -0.022992583 0.039471358
000250 8c 00 04 3e 42 ba d9 3d bb d2 03 be 9a 2c 09 bd
       0.12890834 0.10631229 -0.12873356 -0.0334898
000260 80 bf 19 bd 11 13 ae bd 45 66 5e 3d 33 9d 87 b9
       -0.037536144 -0.084997304 0.05429675 -0.0002586633
000270 65 79 2a 3d af 5c 8d 3b fb cd 72 bd fb 13 f8 bd
       0.041619677 0.0043140273 -0.05927847 -0.12113186
000280 e0 be 97 3c f0 bb 82 bc 93 20 8c 3d 30 1a 0c bd
       0.018523633 -0.015958756 0.068421505 -0.03420466
000290 77 c2 e9 3d 1e 64 00 3e a8 65 07 bd c0 51 a4 3d
       0.11414044 0.12538192 -0.03305593 0.08023405
0002a0 7c 8d ab bd 46 8c 35 3d cc c7 16 3a c2 8c 26 3d
       -0.083765954 0.04432323 0.0005751818 0.04066158
0002b0 08 ac 0a be c0 3a 94 3d ba 7b 88 3c b5 64 09 3e
       -0.13542187 0.07237768 0.01666056 0.13417323
0002c0 a3 fc 3d bd ea fd c4 3d 0b 8a 00 bd 00 56 d1 bd
       -0.04638351 0.09618743 -0.031381648 -0.10221481
0002d0 ae 20 a5 bd 8f 9a 21 3d 22 e1 28 bd 9e 2a e1 3d
       -0.08062874 0.03945404 -0.04123033 0.10994457
0002e0 37 ef 73 bd 4c 01 e9 3d 62 f8 00 3c 48 77 9f 3d
       -0.059554305 0.113772005 0.007871719 0.07786423
0002f0 1f ca 35 bd ac a1 a8 bd 16 36 98 3d 7c 16 85 3d
       -0.04438221 -0.082339615 0.07432191 0.06498429
000300 bf 0a bc bd 19 90 9e 3d bf 08 08 bd a7 45 1c 3d
       -0.09181737 0.07742328 -0.033211466 0.038152363
000310 06 88 87 3d f8 ca 9f bd d7 ca 9a bc 42 ee 61 3d
       0.06617741 -0.07802385 -0.01889555 0.05515886
000320 44 cd 02 3e be ed b6 bc 40 72 07 3e e2 98 19 bd
       0.12773615 -0.022330161 0.13227177 -0.037499316
000330 a1 74 dd bd 96 7e 30 bb 72 a3 0f bc 90 ca f5 bd
       -0.10813261 -0.002693092 -0.008766996 -0.12001526
000340 2e 64 99 bd 2c 21 9b bd 29 1a 05 bd 20 d6 ae bc
       -0.07489811 -0.075746864 -0.03249565 -0.021342337
000350 91 e5 82 bd f2 2d 42 3d 8e cb 59 bd 5f 0a 87 3c
       -0.063914426 0.047407098 -0.05317264 0.016484438
000360 44 89 ae 3c 0b 11 1a bd 59 87 0d 3e 76 c1 f9 bd
       0.021305688 -0.03761391 0.13821162 -0.12195103
000370 36 fd 1c 38 10 ca a9 bd 3f 9c cf bd ca 03 d2 bd
       3.742912e-05 -0.082904935 -0.101372235 -0.10254629
000380 6d 99 65 bd 84 b2 5d bd a3 30 b9 3d 6a a1 b7 3d
       -0.05605452 -0.054125324 0.0904248 0.08966334
000390 eb ab a1 3d 62 80 a8 3d d2 dc bf bc 3f f0 c4 3d
       0.07894119 0.08227612 -0.023420725 0.09616136
0003a0 c0 ef 23 3d 9a 0b 83 bd 1d ae b2 bc 41 a3 97 3c
       0.040023565 -0.06398697 -0.02181154 0.018510463
0003b0 ea a5 ae 3c cb d8 3f bd 9e 34 a3 3d 82 00 24 bb
       0.021319348 -0.04683761 0.0796902 -0.0025024717
0003c0 a0 e4 be bc 06 9e ad 3a ab 98 9c bc f1 71 33 3c
       -0.023302376 0.0013245947 -0.019115767 0.010952459
0003d0 6f 45 7f 3d 5d 1f d8 3d 2a 5e 11 3d 13 84 c1 bc
       0.062322076 0.10552857 0.035490192 -0.023622548
0003e0 45 a8 84 3d 82 cd 99 bc 01 25 64 3d a4 8a 0c 3e
       0.06477407 -0.018774752 0.055699352 0.13724762
0003f0 1a aa 0c 3e 39 bc 45 3d 66 fe 34 bb 35 36 83 3d
       0.13736764 0.048275206 -0.0027617454 0.064068235
